…
el, but are simply referred to as \"YOLO\" in this notebook. Run the cell below to load the model from this file. In [30]: yolo_model = load_model(\"model_data/\", compile=False) This loads the weights of a trained YOLO model. Here's a summary of the layers your model contains: In [31]: yolo_model.summary() Model: \"functional_1\" __________________________________________________________________________________________________ Layer (type) Output Shape Param # Connected to ================================================================================================== input_1 (InputLayer) [(None, 608, 608, 3) 0 __________________________________________________________________________________________________ conv2d (Conv2D) (None, 608, 608, 32) 864 input_1[0][0] __________________________________________________________________________________________________ batch_normalization (BatchNorma (None, 608, 608, 32) 128 conv2d[0][0] __________________________________________________________________________________________________ leaky_re_lu (LeakyReLU) (None, 608, 608, 32) 0 batch_normalization[0][0] __________________________________________________________________________________________________ max_pooling2d (MaxPooling2D) (None, 304, 304, 32) 0 leaky_re_lu[0][0] __________________________________________________________________________________________________ conv2d_1 (Conv2D) (None, 304, 304, 64) 18432 max_pooling2d[0][0] __________________________________________________________________________________________________ batch_normalization_1 (BatchNor (None, 304, 304, 64) 256 conv2d_1[0][0] __________________________________________________________________________________________________ leaky_re_lu_1 (LeakyReLU) (None, 304, 304, 64) 0 batch_normalization_1[0][0] __________________________________________________________________________________________________ max_pooling2d_1 (MaxPooling2D) (None, 152, 152, 64) 0 leaky_re_lu_1[0][0] __________________________________________________________________________________________________ conv2d_2 (Conv2D) (None, 152, 152, 128 73728 max_pooling2d_1[0][0] __________________________________________________________________________________________________ batch_normalization_2 (BatchNor (None, 152, 152, 128 512 conv2d_2[0][0] __________________________________________________________________________________________________ leaky_re_lu_2 (LeakyReLU) (None, 152, 152, 128 0 batch_normalization_2[0][0] __________________________________________________________________________________________________ conv2d_3 (Conv2D) (None, 152, 152, 64) 8192 leaky_re_lu_2[0][0] __________________________________________________________________________________________________ batch_normalization_3 (BatchNor (None, 152, 152, 64) 256 conv2d_3[0][0] __________________________________________________________________________________________________ leaky_re_lu_3 (LeakyReLU) (None, 152, 152, 64) 0 batch_normalization_3[0][0] __________________________________________________________________________________________________ conv2d_4 (Conv2D) (None, 152, 152, 128 73728 leaky_re_lu_3[0][0] __________________________________________________________________________________________________ batch_normalization_4 (BatchNor (None, 152, 152, 128 512 conv2d_4[0][0] ____________________________________
…
